weights/pretrain/Blaze_Final_640.pth (torch, 806374 bytes, 217 tensors)

conv1.0.weight f4 [24, 3, 3, 3]
000000 43 1c e5 bd 64 f2 1e bc a9 7d 1f bd 93 65 4e 3d
       -0.11187031 -0.009701345 -0.0389382 0.050389837
000010 78 7e a9 3d 81 9a 53 bd 99 2c 40 3d 09 82 89 bb
       0.08276075 -0.05166102 0.04691753 -0.0041964096
000020 da 0c 26 bd ac 4d d2 bc d8 28 04 3e c4 21 80 3d
       -0.0405396 -0.025671802 0.12906206 0.0625644
000030 81 ce ad 3d bb 47 1f 3e a8 74 10 3e d3 77 fd 3d
       0.08486653 0.15554707 0.14107001 0.1237637
000040 6e e0 e4 3d 6c e0 66 3d a6 7c 9a bd e5 4d 26 3e
       0.11175619 0.05636637 -0.07543306 0.16240652
000050 9d 02 ba 3d cc 47 9b 3c 7c 4f 72 3e 66 c4 72 3e
       0.0908253 0.018955134 0.23663133 0.23707733
000060 ac 1e a5 3d 9b 83 5f 3e 02 84 2d 3e d7 a1 59 be
       0.08062491 0.21827547 0.16944888 -0.21253143
000070 7b 19 c6 bc ad ed 17 be 4d 98 b0 bd f5 d4 3a 3e
       -0.024182072 -0.1483676 -0.08622799 0.18245299
000080 1e fb d2 bd f1 cb 97 3e f0 6c b0 3e 74 6e 78 bd
       -0.10301803 0.29647782 0.34458113 -0.06065221
000090 8f 58 e3 bd 4a 7c 20 3d b8 9f 9c bd 71 08 49 bd
       -0.111008756 0.03918103 -0.076476514 -0.049080316
0000a0 0f 8e 42 3e 04 06 17 bd 65 0c 20 3e 1f 1b 97 3e
       0.18999504 -0.03687097 0.15629728 0.2951288
0000b0 5d 7c 9c bd 85 b7 79 3d 93 a8 89 3d ab 7a 80 3d
       -0.07640908 0.060966033 0.06721606 0.06273397
0000c0 be c3 96 bd f0 c6 96 3d 2c e8 97 3d 03 8b ab bd
       -0.073615536 0.07362163 0.0741733 -0.08376124
0000d0 36 d0 b8 3d 09 d4 a8 bd b7 a1 49 3d 82 d5 5a 3c
       0.09024088 -0.082435675 0.04922649 0.013356568
0000e0 eb 68 94 3d fa b6 c7 bd 98 3e 75 be c8 47 ad bd
       0.07246574 -0.09751697 -0.23949659 -0.08460957
0000f0 db f8 89 bd 28 4e 98 3d 5d 72 25 bd 9b 4e e5 3d
       -0.067369185 0.07436782 -0.04039227 0.111966334
000100 8e 58 b5 bc d6 52 b2 3b 4a 86 9b bd 38 ca a6 be
       -0.022136953 0.0054420037 -0.07593973 -0.32576156
000110 ef 41 a4 be 61 5d 71 3c 43 1c 80 bd 1e ed 93 bc
       -0.32081553 0.014731736 -0.062553905 -0.018057402
000120 d2 ab 82 b9 1c 72 3e be e8 fe 8a bd d3 03 18 be
       -0.00024923548 -0.18598217 -0.06786901 -0.14845209
000130 37 c2 e1 be bf 74 a2 be 94 69 1a 3e ee 87 34 3d
       -0.44093487 -0.31729695 0.15079337 0.044074945
000140 65 15 3c 3e 25 2d 19 be 26 65 92 bd 51 ec bd bd
       0.18367536 -0.14958628 -0.07148199 -0.092735894
000150 75 96 3c 3e 8a 3a f0 3d 52 0b cf bd b2 3d 2f 3e
       0.1841677 0.117299154 -0.10109581 0.17113379
000160 8f ee 9f 3d c8 c2 25 be 37 3e ce 3a 27 1d 98 3d
       0.07809173 -0.16187584 0.0015735094 0.07427435
000170 e4 bc 1c be f7 a0 28 3e 3b 24 a8 3e ee c3 60 3d
       -0.15306431 0.16467653 0.32840142 0.054874353
000180 a7 9d fa 3d 4a 9b 61 3d 88 25 57 be b7 1f d0 bd
       0.12237101 0.055079736 -0.21010411 -0.10162299
000190 de a0 44 3e 0a e7 75 3c 82 08 e3 3d b4 9d b2 3e
       0.19201991 0.015008697 0.11085607 0.34885943
0001a0 5a 6d 47 3e 97 9d 6f 3d de 57 10 3d 99 e4 35 be
       0.19475308 0.0584999 0.035240047 -0.17762984
0001b0 7c 07 ea bc 1c c2 c3 3d ba 58 ba bd 24 41 b0 3d
       -0.028568022 0.09558508 -0.090989545 0.086061746
0001c0 59 cd 7f 3e 2a 8e fd 3d 34 66 36 3d bf 12 10 3e
       0.24980678 0.12380631 0.044531062 0.14069651
0001d0 58 df 7e 3d b1 c2 51 3d 76 c6 97 3c 8d c4 85 3c
       0.062224716 0.051211063 0.01852725 0.016329074
0001e0 bf c2 5d 3d 55 b4 83 3e ec c0 41 3e 84 2d 3f be
       0.054140802 0.2572352 0.1892125 -0.18669707
0001f0 8e 76 71 bd d5 84 e7 3d 85 a4 d3 3d 8e d2 50 3e
       -0.058950953 0.113046326 0.10334114 0.2039282
000200 5c e1 90 3b cc 84 11 3e 47 fa ab 3e 03 5c 79 3e
       0.004421396 0.14210814 0.33589384 0.24351506
000210 db 9a 2c 3d 38 f3 70 3d b4 fa 00 3e 7f c1 54 3e
       0.04213987 0.0588257 0.12595636 0.20776938
000220 3d 39 02 3e dc 17 c0 3d 8f 91 0e 3e 2d 1f 96 3e
       0.12717147 0.09379551 0.13922714 0.2932066
000230 1c 77 75 3e f7 b3 ae 3d f5 ec 59 3e 69 5d d0 bd
       0.23971218 0.08530419 0.21281798 -0.101740666
000240 81 9f d7 be 09 48 9e be 35 a4 6b be 27 a2 96 be
       -0.4211388 -0.30914333 -0.23011859 -0.29420587
000250 d8 dc 90 be 74 ed d4 bd 33 94 34 be 51 56 b4 be
       -0.2829349 -0.10396853 -0.17634659 -0.35222104
000260 0d b6 e6 be 43 08 e6 3d e9 ca 79 3e bf c7 e0 3d
       -0.4506077 0.112320445 0.2439381 0.109755985
000270 56 c0 72 3e 1c 7b 07 3d c8 97 9c 3c db ed 34 3e
       0.23706183 0.03307639 0.019115344 0.1766886
000280 2f 20 d1 3d 9f 12 ae 3c aa c6 cf bd e4 17 7a 3c
       0.10211217 0.021249114 -0.10145314 0.015264485
000290 fd 2f 7a 3c cf 32 0b 3e ba f6 88 3a 00 df d2 3c
       0.01527023 0.135936 0.0010449507 0.0257411
0002a0 70 44 bf bd 89 81 a7 bd 2a 25 ec bc eb a2 dc bd
       -0.09339225 -0.08179004 -0.028826315 -0.10773262
0002b0 bf 18 e5 bd 4d 85 cb 3d 3e 72 d2 3c 51 50 26 be
       -0.111863606 0.099375345 0.02568924 -0.16241576
0002c0 4d 33 54 be 44 b0 d6 3b f1 f9 db bc c2 e4 80 be
       -0.20722695 0.006551774 -0.02685258 -0.25174528
0002d0 c0 44 8a bd 45 d8 45 bd 32 4c 79 3e 96 48 f9 bc
       -0.06751394 -0.048301954 0.24345472 -0.03043012
0002e0 ba d0 ec be 15 11 98 be cb a8 02 3d c8 9e dc bd
       -0.46252996 -0.29700533 0.031899255 -0.107724726
0002f0 f5 19 96 be 58 00 4f be eb 01 19 3c b6 77 84 bd
       -0.2931668 -0.20214975 0.009338836 -0.064681455
000300 95 76 11 be 7b 00 e8 3d 9a df 33 3d 77 14 5d 3d
       -0.14205392 0.11328217 0.043914415 0.053974595
000310 cc 00 9c 3e 8d 29 8f 3e 42 f9 31 3c 62 b9 2b 3b
       0.30469358 0.27961388 0.01086265 0.0026203026
000320 74 51 1b bc a2 94 42 39 61 06 41 3d 9b c1 d4 bc
       -0.009479869 0.00018556652 0.047125224 -0.025971225
000330 cf c4 b1 3d 75 00 36 3e a0 eb 1a 3e b8 04 a2 3d
       0.086801164 0.17773612 0.15128946 0.07911056
000340 e7 ad 67 3e 02 3c cc 3d 2b 69 4d 3d 6e ce 15 3e
       0.22624932 0.09972383 0.050149124 0.14629528
000350 84 f7 f5 3d 2e 5e b3 bb 0a e2 42 3d 8a cc 29 3d
       0.120101005 -0.0054738736 0.04757885 0.04145483
000360 95 57 61 3e 60 fe 68 3d 65 68 b9 3d 3e 28 93 be
       0.22006066 0.056883216 0.09053115 -0.2874164
000370 69 a4 d6 be 7f a1 fb bc ea 17 75 3e bd c9 9a 3d
       -0.4192231 -0.030716656 0.23934904 0.0755801
000380 8b 54 82 bd 88 97 09 3e 6b e0 bb 3e f5 9d 6a 3e
       -0.063637815 0.13436711 0.36694655 0.22911818
000390 18 ed ba be d4 90 a1 be a1 74 38 be 33 de 71 3d
       -0.36509013 -0.31555808 -0.1801324 0.059049796
0003a0 df 41 bd bd 16 f3 46 3d 01 6d 41 3e 9d 65 64 3e
       -0.092410795 0.04857167 0.18889238 0.22304387
0003b0 3d 41 a6 3e 23 e4 a8 be 0f 44 90 be 1e 27 86 bd
       0.32471648 -0.32986555 -0.28176925 -0.0655043
0003c0 f4 a6 56 3e bb 18 b1 bd 2e aa 7e bc 87 d6 c3 3d
       0.20962125 -0.08647295 -0.015543504 0.09562402
0003d0 47 1f eb 3d 3a 88 da 3c b3 24 a1 bd 20 fb a2 be
       0.11480575 0.026676286 -0.07868328 -0.31832218
0003e0 0b dd e8 bc 20 93 54 3d 87 42 f3 bd c1 2a 2c 3e
       -0.028425714 0.05189812 -0.118779235 0.16813184
0003f0 cb c7 f7 3e b7 69 94 bc 8e 05 b3 bc 4e 31 90 ba
       0.48394617 -0.018116815 -0.021853235 -0.0011001022

conv1.1.weight f4 [24]
000000 23 c1 1d 3f f0 4f c3 3e 35 fc 34 3f b7 4d 21 3f
       0.6162283 0.38146925 0.7069734 0.6300921
000010 7a 36 1c 3f f5 5e 93 3e 1a dd 34 3f 54 65 f8 3e
       0.61020625 0.28783384 0.70649874 0.48514807
000020 60 75 43 3e 62 3e bc 3e ca 0a 85 3e 22 4a d7 3e
       0.19087744 0.36766344 0.25984794 0.42048746
000030 22 dc e9 3e 21 0a 2a 3d cf ac f2 3d 63 b4 92 3e
       0.4567576 0.041513566 0.11849367 0.2865325
000040 4c 52 94 3e 76 d4 50 3f e4 e6 6f 3e 8b 99 b6 3e
       0.28969038 0.8157419 0.23427922 0.3566402
000050 4e 47 5d 3f 9b 68 cc 3e f8 b8 0e 3f 07 74 8a 3e
       0.8643693 0.39923558 0.5575099 0.27041647

conv1.1.bias f4 [24]
000000 25 3b 01 3e 17 88 c8 3c b0 73 0e bd b9 12 c4 3e
       0.12620218 0.024478955 -0.034778297 0.38295534
000010 7d 88 db 3e 44 d7 7d 3e c8 c0 50 be 92 6f 52 3e
       0.4287757 0.24789149 -0.2038604 0.20550373
000020 98 1c 8d 3e 65 8c b1 3e 91 94 98 3e 3e e4 41 3f
       0.27560878 0.34677425 0.29800847 0.75738895
000030 14 bb 20 3f d5 db d9 3d 9f 6e 11 3e 6b 23 5d 3e
       0.6278546 0.10637633 0.14202355 0.21595542
000040 5f 20 45 3d 48 d1 99 3e a9 ee 11 3f 59 ba 4a 3e
       0.048126575 0.3004248 0.5700479 0.19797648
000050 4b 19 89 3e 12 2a bd 3d c7 45 28 3e f8 88 18 3e
       0.2677711 0.0923654 0.16432868 0.14896

conv1.1.running_mean f4 [24]
000000 64 6f 81 c1 08 70 b0 c0 33 e8 5b 41 34 46 10 c1
       -16.17939 -5.5136757 13.744189 -9.017139
000010 73 a8 79 c1 f4 22 85 41 32 2e 71 41 d8 7b 37 c1
       -15.603625 16.642067 15.073778 -11.467735
000020 c4 7c 1b 3f 47 e8 12 40 c3 fe b0 bd 93 f3 5b 41
       0.6073725 2.295427 -0.08642342 13.746966
000030 70 b3 21 bf 19 b7 1b 3f 6b e2 57 3f 43 2a e4 3e
       -0.63164425 0.6082626 0.8432986 0.44563493
000040 6e 32 65 c1 0b 1a fa 40 c2 6b 07 bf 30 c8 39 40
       -14.324812 7.815679 -0.528988 2.9028435
000050 0b 54 18 41 89 ee 09 40 6d 93 27 41 3e 5a 02 40
       9.520518 2.155184 10.473493 2.036758

conv1.1.running_var f4 [24]
000000 5d 94 99 46 e8 b7 2c 45 34 bb 83 46 12 1d d1 45
       19658.182 2763.4941 16861.602 6691.634
000010 2b 9d e6 46 dc f5 82 45 25 c8 92 46 ed 96 59 46
       29518.584 4190.7324 18788.072 13925.731
000020 39 44 f2 43 44 aa 50 44 6e 68 6a 44 23 5a 8c 45
       484.533 834.6604 937.6317 4491.267
000030 b1 4d e2 44 0d 22 46 43 7b a1 15 44 4e 75 7b 44
       1810.4279 198.13301 598.52313 1005.8329
000040 fe bd 93 46 b5 22 88 45 9d 56 c0 44 a9 8b 25 46
       18910.996 4356.3384 1538.7067 10594.915
000050 3c 04 05 46 8c c0 3a 46 3a 32 06 46 a7 a7 58 46
       8513.059 11952.137 8588.557 13865.913

conv2.conv.0.0.weight f4 [24, 1, 5, 5]
000000 d3 a2 2e be 58 ec 8e 3d 23 38 98 3e 44 e5 04 3e
       -0.170543 0.06978673 0.2973033 0.12978083
000010 f9 42 09 bc 1b 1f 6a be 64 9f 3a bd 64 58 a6 3e
       -0.008377784 -0.22863428 -0.045562163 0.32489312
000020 76 48 dc 3e 29 52 2a 3e dc f2 05 bd 9b e8 c1 3d
       0.43024033 0.16632904 -0.032702312 0.09468194
000030 c3 fd ec 3d 4d 00 51 3e d2 12 02 3e 3a fd 5c bd
       0.11571839 0.20410271 0.12702492 -0.053952433
000040 47 f9 83 bd ff 25 cb bb 0e fd e2 3d 1d 31 64 3d
       -0.0644403 -0.006199598 0.110834226 0.0557109
000050 36 80 49 be 68 b3 7f be 1e cb fc bd c3 71 94 3d
       -0.19677815 -0.24970782 -0.12343429 0.07248261
000060 34 54 df bd 1a b2 77 bb 78 57 1d 3d 39 1a 6e be
       -0.10904732 -0.0037795366 0.038413495 -0.2325219
000070 3b 18 fd 3a a1 42 70 3e 18 67 c2 bc a7 fc 07 be
       0.0019309589 0.23462917 -0.0237308 -0.13279973
000080 6f c6 c2 be 14 b8 c5 3d 4a 9b 91 3e 26 57 38 bd
       -0.38042018 0.09654251 0.2843879 -0.045004986
000090 52 96 77 bd cd b5 15 bf 00 12 24 bd 43 5c 17 3e
       -0.06044609 -0.5848053 -0.04005623 0.14781289
0000a0 8f d5 99 3c b7 1d 06 3e 3c d7 4f 3d e6 ba ec 3e
       0.01877859 0.13097273 0.050742373 0.46236342
0000b0 ec da f7 3d e6 66 19 3b bb 33 b9 3c 63 d2 9b bc
       0.12102303 0.002340728 0.022607675 -0.019021219
0000c0 af eb b3 3b a7 41 44 3d d9 a1 2f be 44 a4 96 bd
       0.005490742 0.047914173 -0.17151584 -0.0735555
0000d0 38 29 64 be 7e 8d 22 be 9d c7 12 bc 68 41 5f bd
       -0.22281349 -0.15874287 -0.008958724 -0.054505736
0000e0 89 ae 2e be e7 40 df bd d8 fb 16 be 61 40 a7 3b
       -0.17058767 -0.10901051 -0.14744508 0.00510411
0000f0 5a 6d 94 be 72 df 15 be 71 23 ad bc 12 c6 26 be
       -0.2898968 -0.14636019 -0.021135064 -0.16286495
000100 cf 43 61 bc b5 cf cc 3d a5 1a 28 3f 95 87 48 3f
       -0.013749077 0.100005545 0.65665656 0.7833188
000110 f4 b1 8e 3c e0 0b 72 bc 09 73 5a bd 87 7f 73 3e
       0.017418839 -0.014773339 -0.053332362 0.23779117
000120 ee 00 63 3e 5e e0 1a 3e 01 45 05 3d 27 e1 64 3e
       0.22168323 0.15124652 0.03253651 0.22351514
000130 27 0b 1e bc a9 aa 64 be 13 75 9b 3d 4f 89 e6 3d
       -0.009646214 -0.22330727 0.075906895 0.11256658
000140 14 6b 19 bd 35 07 84 be 0b 8c a7 be f3 1e 6a be
       -0.037455633 -0.2578675 -0.32724032 -0.22863369
000150 75 32 8a bd d6 83 b7 bc 93 87 5c 3d ab 6f 33 bd
       -0.06747905 -0.022401731 0.05384023 -0.043807667
000160 64 3e 7f be b7 e4 10 3b 08 78 55 3d 8f 7f 19 be
       -0.24926144 0.002210898 0.052116424 -0.14990066
000170 aa b7 e3 bd e8 3b 26 bd 52 78 30 3e 7d 2a 06 3d
       -0.111190155 -0.040584475 0.17233399 0.032755364
000180 ed 08 cd bd f5 5d 49 bd f5 9a 07 be 91 5b d1 3d
       -0.10011468 -0.04916187 -0.13242705 0.10222543
000190 42 6a d9 bd c7 0f 66 be 70 be 29 be ac e2 ec bd
       -0.1061597 -0.22466956 -0.16576552 -0.11566672
0001a0 33 ea dd 3c 01 19 f9 bd 57 80 04 be ed cb 59 be
       0.027089214 -0.12162972 -0.12939583 -0.21269198
0001b0 34 b4 19 be 95 0f 67 be ed 81 e8 bd ca f1 ba bd
       -0.15010148 -0.22564538 -0.113529064 -0.09128149
0001c0 33 6b ff 3d 40 8b 1b be df 33 fb bd 93 5d 75 3d
       0.124716185 -0.15189838 -0.12265753 0.059903692
0001d0 3f 80 a0 3e 5e 73 2d 3f 7d ed 21 3e d7 43 31 3d
       0.31347844 0.6775416 0.15813251 0.043277588
0001e0 ec db 0a 3e c6 20 b9 3e 43 d9 95 3e 06 eb 73 3e
       0.13560456 0.36157817 0.2926732 0.23820123
0001f0 9e 80 98 3d ca ba 38 bd b2 74 6e be 84 41 47 3d
       0.07446407 -0.04510001 -0.23286703 0.048646465
000200 de db 22 be ef bf 06 bd 5b 25 57 be de 6f 72 3e
       -0.15904185 -0.032897886 -0.21010344 0.23675486
000210 30 8a ca 3e 56 b8 3e bc 6a 17 5d be 16 7a 81 bc
       0.39558554 -0.011640629 -0.21590963 -0.015805285
000220 06 44 94 3e 34 64 4d 3c 99 20 c1 3e be 10 41 bd
       0.28958148 0.012536097 0.37720183 -0.047135107
000230 72 2b b5 3d 9c de 40 bd 5c f6 10 3e d3 2d 8c 3e
       0.08846177 -0.047087297 0.14156479 0.2737871
000240 7e e1 97 bd 1a 7d 14 3c 45 25 c1 bd 1b 09 63 3d
       -0.07416056 0.00906303 -0.09430937 0.055428606
000250 f6 e5 2f bb e0 d1 b4 bc 66 70 3f be 0e 70 28 be
       -0.0026839948 -0.022072732 -0.1869522 -0.16448995
000260 20 79 4d 3e 12 29 2b be 46 86 bf 3d c0 40 92 3d
       0.20065737 -0.16714886 0.093517825 0.07141256
000270 3d b1 68 3e e6 6c 47 3f d4 a6 a6 3d 84 9c 9c bd
       0.22723861 0.7790054 0.08137289 -0.076470405
000280 2e d1 ea 3d ce f5 1b 3e 3e ce 99 3e 94 7c 46 3e
       0.11465679 0.15230486 0.30040163 0.1938346
000290 11 cb 05 bd 82 7a 0e bd c4 1b 7d be eb f5 c4 be
       -0.032664362 -0.0347848 -0.24717623 -0.3846887
0002a0 56 49 ef 3b bf 40 58 bd 49 35 d7 bc 99 cc ef ba
       0.0073024435 -0.05279612 -0.026270526 -0.0018295228
0002b0 f8 b9 97 bd 5b 10 8a be 08 d6 95 bd d3 d5 c8 3d
       -0.074085176 -0.26965603 -0.07316214 0.09806409
0002c0 3d 91 7b 3e 35 89 1c 3e e6 2f 39 3d ec 7c 85 bd
       0.24567123 0.15286715 0.045211695 -0.065179676
0002d0 11 9c ae 3e ec af dc 3e b7 7f 13 3e 6a 60 33 be
       0.34103444 0.43102968 0.14404188 -0.17517248
0002e0 36 f4 ad bd 3c a1 a1 3e 8b c8 61 3e 86 22 93 be
       -0.08493845 0.31568325 0.22049157 -0.28737277
0002f0 c1 28 b3 be 4c c6 99 bd 3b 6e 79 3d 87 63 2c be
       -0.3499203 -0.07508525 0.06089614 -0.16834842
000300 63 56 bd bd 94 78 2e 3d 28 b0 fd bd bf f4 b4 bc
       -0.092449926 0.04259546 -0.12387115 -0.02208936
000310 37 3c e5 bd b6 f9 42 be 4e f6 94 bc 7c 52 7f bd
       -0.11193126 -0.1904057 -0.018183853 -0.062334523
000320 3c 6a 1b 3c aa f2 48 bd dc b4 2e 3d aa 93 bd bc
       0.0094857775 -0.049059547 0.04265295 -0.0231417
000330 b8 79 33 3a 3c 27 fb 3c 57 c7 ba bd cd aa 8b 3d
       0.00068464456 0.030658357 -0.09120052 0.06819687
000340 ca 10 6a be 5a 01 b2 3d 42 0e 22 bd 02 67 9e bd
       -0.22857967 0.08691664 -0.03956438 -0.07734491
000350 14 5b a2 3e d0 88 33 3f d5 fe f4 bd 39 a4 51 3d
       0.31710112 0.70130634 -0.11962668 0.051182006
000360 73 3a b4 3d 08 23 33 bf 44 4c b8 be ee a8 ee 3d
       0.08800211 -0.6997533 -0.35995686 0.116533145
000370 2a b0 e2 3b 30 ad 58 bc 10 9d 0e 3e 0c 96 f6 b9
       0.006917973 -0.013224885 0.13927102 -0.0004703257
000380 1d 00 03 bc 24 fb 05 bd fe 56 bb 3d 23 48 0f bc
       -0.0079956325 -0.03271021 0.09147452 -0.008745226
000390 34 e1 e6 3c 8c 9a d2 bd 8b f9 36 3d 06 37 ef bd
       0.028183557 -0.10283384 0.044671576 -0.11680417
0003a0 d2 9c aa bd f1 a4 cc bd fd b6 b7 bc 93 87 8a 3c
       -0.08330692 -0.099923976 -0.022426123 0.01691035
0003b0 6d e8 dc 3d e7 4c 67 3f e5 cf e9 be 0c ac 2e 3e
       0.10786519 0.9035172 -0.45666423 0.17057818
0003c0 bf 84 1f bd 2e 07 18 bd 0f 55 14 3d 84 a1 cf be
       -0.038944956 -0.037116222 0.03621393 -0.40552914
0003d0 27 be 17 3d 80 a2 5c bc 38 f4 e2 bc 52 1f a4 b9
       0.037046578 -0.013466477 -0.027704343 -0.00031303853
0003e0 59 a7 28 bd 95 c6 95 bc 1f 48 f0 3b 9b 35 0c 3d
       -0.04117522 -0.018283168 0.0073328163 0.03423081
0003f0 05 d6 ab 3c e4 ef 48 bd ff 72 81 bd b3 86 2f bd
       0.020976076 -0.049056903 -0.06320762 -0.04285307

conv2.conv.0.1.weight f4 [24]
000000 e1 ab 0b 3f 51 07 b9 3e e9 75 57 3f 28 a8 2c 3f
       0.5455914 0.36138394 0.8416429 0.67444086
000010 a3 b4 45 3f fe f4 25 3f d5 a1 30 3f db 21 d5 3e
       0.77228755 0.64826953 0.68996936 0.41627392
000020 a4 cb 7f 3f 33 9b 27 3f a8 c4 35 3f 98 0a 0e 3f
       0.99920106 0.6547119 0.710032 0.55484915
000030 cd 5b 74 3f 0f 44 26 3f b7 f6 3d 3f 53 df 61 3f
       0.95452577 0.649476 0.7420458 0.8823139
000040 ee 56 da 3e b6 ae e0 3e 7c 6f 89 3f 17 9c 1d 3f
       0.42644447 0.43883294 1.0737147 0.615663
000050 ab 28 1a 3f f3 e6 ca 3e d4 28 43 3f 4f 0f 6b 3f
       0.60218304 0.39629325 0.76234174 0.91820234

conv2.conv.0.1.bias f4 [24]
000000 43 90 a1 3e e9 c2 ed 3d 6a 5a 94 3d 73 06 83 3e
       0.31555375 0.11609442 0.072438076 0.25590858
000010 c3 e4 c0 3e 37 57 f9 3e 4d 7e 11 be af 58 0d 3e
       0.3767453 0.48699352 -0.14208336 0.13803361
000020 5c 9c cb 3e 41 a6 d7 3e 98 b3 cc 3d 7c 8c 0e 3e
       0.3976773 0.4211903 0.09995192 0.13920778
000030 ab 97 63 3f 11 a5 03 bc bb 93 0c 3e 88 bc e3 3e
       0.889033 -0.00803496 0.1372823 0.44479775
000040 c3 22 f6 3d 35 f9 ab 3e eb 7e 81 3f 5f 15 bb 3d
       0.12018349 0.33588567 1.0116857 0.091349356
000050 f8 4a 6a 3e 54 f2 4b 3f ab 41 73 3e c5 c6 27 3f
       0.22880161 0.7966664 0.23755519 0.65537673

conv2.conv.0.1.running_mean f4 [24]
000000 14 1a 98 3e 1c ce b9 3c 73 3b de 3d 5a c5 17 bf
       0.29707396 0.022681288 0.10851183 -0.5928551
000010 05 4d 94 3e 85 b1 49 3e f3 80 b3 3d 35 6b ac 3d
       0.2896501 0.19696625 0.087648295 0.084188856
000020 ee f1 57 bc 1e 40 bb bc e6 0f 3b bc a7 59 49 3e
       -0.013180239 -0.022857722 -0.011417365 0.19663106
000030 b7 64 7a bf 1b 50 b2 bc 3a fa 69 3c 32 81 8f 3d
       -0.9780993 -0.021766713 0.01428085 0.07007064
000040 14 7b 04 3c 02 d3 46 be 7b 12 7f be 16 f8 92 bc
       0.008085985 -0.1941643 -0.24909393 -0.017940562
000050 85 bd 5c 3e bc 38 70 3d 80 94 21 3e 4d 16 19 be
       0.21556671 0.058647856 0.15779305 -0.14949913

conv2.conv.0.1.running_var f4 [24]
000000 96 82 3e 3e a3 a1 75 3c 77 e5 8a 3d 42 f3 c6 3e
       0.18604502 0.0149921505 0.06782048 0.38857466
000010 29 1d 59 3e 67 d2 04 3d 3a 16 fd 3c ea c1 58 3d
       0.2120253 0.032427218 0.030894388 0.052919306
000020 14 06 d4 3c f9 2b 25 3d e0 0a 1e 3d 0d af 3e 3d
       0.025881805 0.04032514 0.03858459 0.04655366
000030 ce 73 b8 3e 9c 17 b7 3a 7b e5 f5 3b f9 fb 51 3d
       0.36025852 0.0013968828 0.007504163 0.05126569
000040 9b 32 6e 3c 51 20 cd 3d 01 46 74 3d e4 c6 15 3d
       0.0145384325 0.100159295 0.059637073 0.03656663
000050 f2 6b 23 3e ee 93 4e 3c 4f 85 6a 3d 7d b7 2c 3d
       0.15959147 0.012608511 0.05725604 0.042167176

conv2.conv.0.3.weight f4 [24, 24, 1, 1]
000000 7e f3 6e be 31 54 74 bd 5b ee 4d be b8 43 47 3e
       -0.23335072 -0.059650604 -0.20110457 0.19459426
000010 18 f0 f2 3d 19 08 ac 3e ce 50 4f 3d ce e8 99 be
       0.118622005 0.33599928 0.05061417 -0.30060428
000020 36 f0 9c be 34 5d d0 bd 0c 70 02 be 0a 7e e8 3e
       -0.30652016 -0.10174027 -0.12738055 0.4540866
000030 4a 9b 76 bd 17 34 5a be 9c 2d 1b 3c b5 22 8f bd
       -0.06020669 -0.21308933 0.009471323 -0.06989042
000040 0c b1 ce bd 3a 6c a7 be d9 93 84 be 2b a1 f2 3d
       -0.10092363 -0.32699758 -0.2589405 0.118471466
000050 e7 cb 9d 3c c7 6c 87 be ca ed 93 3d 08 2d 14 be
       0.019262267 -0.26450178 0.07223089 -0.14470303
000060 bf 0e 3d bd ae 0d 64 be da 81 86 3e 18 8e 33 be
       -0.04615664 -0.22270843 0.26270944 -0.17534673
000070 69 2d 27 be 61 50 86 3c 85 3c d1 bd 52 ee d1 3b
       -0.16325916 0.01639575 -0.10216621 0.006406584
000080 6d dc 42 be 3f 40 79 be bf 36 b3 3d 63 c9 5b bd
       -0.19029398 -0.24340914 0.08750676 -0.053658854
000090 5b 95 c3 3e ea 7c 25 be a7 cf 03 be 82 83 93 be
       0.38199887 -0.16160932 -0.12872182 -0.2881127
0000a0 30 42 72 3e c3 c9 f6 bd a6 65 02 3f 36 75 f1 bd
       0.23658061 -0.12050202 0.50936353 -0.11789934
0000b0 49 c4 d9 3d 8a 77 41 3e ff 4a 3b bd 94 19 a1 3d
       0.106331415 0.18893257 -0.04572582 0.07866207
0000c0 e5 6c f8 3c b6 35 95 bd a2 c2 b8 3d 83 4c eb bd
       0.030325362 -0.07285635 0.09021498 -0.11489203
0000d0 3f dc 28 3d 0d 73 0c 3e 85 85 cd 3d d4 04 0d bd
       0.041225668 0.13715763 0.100352325 -0.034428433
0000e0 0d 1a 80 3e 9c 74 77 3d 41 17 21 bf f4 94 87 3d
       0.25019875 0.06041394 -0.6292611 0.066202074
0000f0 9a cc 64 bc e6 dd 91 be 13 bd d9 3d f4 45 ec be
       -0.013964796 -0.28489608 0.10631766 -0.4614712
000100 7b dd 4b 3e e2 ff b5 3d 2d 0b 3d 3e e1 68 7a 3d
       0.19908707 0.088866964 0.18461294 0.061135177
000110 b0 36 50 be f1 38 0c 3e 8c 99 9d be 48 1a f2 bd
       -0.20333362 0.13693596 -0.3078121 -0.11821419
000120 48 c6 b1 3d 2c 3d af 3c 56 b2 a0 bd 57 52 ac 3e
       0.08680397 0.021391474 -0.07846515 0.3365657
000130 ea 4a 56 be 56 f3 66 3e f7 3e 26 be 2b d2 2e be
       -0.20927015 0.22553763 -0.16234957 -0.1707236
000140 f9 82 dc be be cf 1c bc 98 df 73 bc 70 9b 30 3e
       -0.43068674 -0.009571014 -0.014884852 0.17246795
000150 14 98 3e bd 0e 28 c5 bb 2b 26 f0 be e9 50 27 3c
       -0.04653175 -0.006016738 -0.4690412 0.010212162
000160 69 e5 32 be 22 c8 97 bd e1 16 39 be 34 39 3e 3e
       -0.17470326 -0.07411219 -0.18075134 0.18576509
000170 2e 82 8b 3d 5f bc 55 3e c2 4d 16 be 07 b1 94 be
       0.06811939 0.20872639 -0.146781 -0.2904131
000180 6f 93 db bd dd f7 8f be 92 b9 9e 3e bd 4d 2c 3e
       -0.1072148 -0.28118792 0.31000954 0.1682653
000190 df 35 ed be 88 b1 cf bc 84 88 0e be ba 8e 45 3d
       -0.46330163 -0.025353208 -0.13919264 0.048231818
0001a0 7d 52 5c bd 94 6d a8 be de b3 49 bd 26 02 71 3c
       -0.053789604 -0.328961 -0.0492438 0.014709985
0001b0 10 26 3a be 56 e6 a9 be a8 86 ad bd 8b 0c c3 3e
       -0.18178582 -0.33183545 -0.08472949 0.38095507
0001c0 ae 6f 87 3e 97 c1 57 3e 84 a0 d0 3e 92 b1 36 3e
       0.26452392 0.21069942 0.40747464 0.17841175
0001d0 7d 7e f1 bd 00 eb 63 bd 10 cc df 3d ff 9a bf bc
       -0.11791704 -0.055644035 0.10927594 -0.023389338
0001e0 38 a0 14 be 55 a0 d9 bd c4 a7 4b 3c 31 7b b7 3c
       -0.14514244 -0.10626284 0.012430135 0.02239761
0001f0 c1 f3 a8 be 93 17 1d be ab d8 e8 bd 36 df 8a bd
       -0.3299847 -0.15341024 -0.11369451 -0.06780855
000200 d3 44 8f be 6f d3 18 bc 9d df 3e be 49 e7 5d 3d
       -0.27982196 -0.009327753 -0.18639989 0.05417565
000210 cd df 94 be 24 6e 55 3d 29 ce 00 3d 65 ed 83 be
       -0.29076996 0.05210699 0.03144661 -0.25767055
000220 5b 11 d0 3d 20 7e 45 be 01 b8 d0 be 93 b6 a2 be
       0.1015956 -0.19286394 -0.40765384 -0.31779918
000230 77 38 a2 be 76 3c ba 3d f6 a3 63 3c 3c c8 11 3e
       -0.31683704 0.09093563 0.013894072 0.1423654
000240 e1 a1 82 be 97 6d c9 3d 56 3c a7 be 3e 20 35 3e
       -0.2551413 0.09835356 -0.3266322 0.1768808
000250 c1 95 86 3e 6c 1e c8 3b 6a 6d 93 3c 6f 63 7c 3c
       0.26286128 0.006107142 0.017996509 0.015404566
000260 07 80 09 3f f0 8a 06 be 57 1d 4c be 8e 59 8a 3d
       0.5371098 -0.13138938 -0.19933067 0.067553625
000270 ed 71 01 bf a8 a1 87 bd 35 8d a2 3d 41 ca 5e 3d
       -0.5056446 -0.0662263 0.07937089 0.054392103
000280 cd 9d b6 3d c5 a1 8b 3d e5 f5 10 bf 55 1c 51 bb
       0.08916817 0.068179645 -0.56625205 -0.0031907756
000290 18 a7 8b 3c db 10 0f be 93 9d 86 bc eb 90 97 bd
       0.01704745 -0.13971274 -0.01643256 -0.07400688
0002a0 f9 23 78 be 5a 50 c1 be 28 d7 0a be f8 dd 82 3e
       -0.24232472 -0.37756616 -0.13558638 0.25559974
0002b0 ef fc 5b 3d 25 d1 b9 3d a0 ac 35 bd 6d cd 6f 3d
       0.053708013 0.09073094 -0.04435408 0.05854552
0002c0 72 8a ab 3b 4c 60 06 bf cb 2b a6 3e 4d 36 99 bd
       0.00523501 -0.5249069 0.32455286 -0.0748106
0002d0 ba a1 01 bf 33 0e b8 3e bc 8e b9 3d 89 a2 85 be
       -0.506374 0.35948333 0.090604275 -0.26100567
0002e0 f5 de 8d bd 1e cc ba 3c 00 12 70 bd 07 a8 03 be
       -0.06927291 0.022802409 -0.058610916 -0.12857066
0002f0 db 22 c9 bd 48 43 6c 3c 8e 7e d1 3e a9 2a e3 bd
       -0.09821101 0.014420338 0.40916866 -0.11092121
000300 15 1b 14 bd d4 df 8d 3d 01 0a 8a 3d ba f5 1a 3d
       -0.03615864 0.069274575 0.06740189 0.037832
000310 90 17 da 3d 61 06 98 3e 47 f9 e1 3d b6 fb 3f 3e
       0.106490254 0.29692367 0.11033874 0.18748364
000320 f8 dc 9b bd bb f9 58 3c 42 3f 1c 3e c8 88 77 3c
       -0.07610506 0.013243134 0.15258506 0.015108295
000330 09 0c d7 3d 7c 39 ef 3d 5a ea 25 be 78 fa 67 bd
       0.105003424 0.11680886 -0.1620268 -0.05663535
000340 37 d0 75 bd 97 a3 ae 3d a6 32 3c bd 03 a3 40 3d
       -0.060013022 0.08527296 -0.04594674 0.04703046
000350 d9 3c 32 bd 86 d8 ea be 60 d3 b7 3a 7a 47 42 bf
       -0.04351506 -0.4586832 0.0014024787 -0.75890315
000360 7d e0 bc 3d d5 fb e1 3b 6f 50 03 3d e7 cb 64 be
       0.09222505 0.006896476 0.03205913 -0.22343408
000370 0d c5 9f bd 03 6d 35 bd 5e 85 e0 bc 5e 97 92 bd
       -0.07801256 -0.044293415 -0.027407344 -0.07157777
000380 1c cd 70 3e 22 da af 3e db 2e c1 bd ae f8 14 be
       0.23515743 0.3434611 -0.09432765 -0.14547989
000390 36 65 54 bd 3a 6e 8c be fa 20 21 3f df 70 67 ba
       -0.051854335 -0.27427846 0.62940943 -0.000882877
0003a0 a2 4e ca 3d a9 be 06 3e fd fd 37 3e e7 cb 1f 3e
       0.09878279 0.13158669 0.17967983 0.15605126
0003b0 3d 4e ee bd 85 c2 e4 3e 39 17 b9 bc 97 ec ae 3e
       -0.116360165 0.44679657 -0.022594081 0.3416488
0003c0 57 c1 8c 3e 22 e9 f4 bd 11 e4 ec bd 1e 81 19 3d
       0.27491257 -0.11958529 -0.11566938 0.03747665
0003d0 a5 2d a2 3c e1 f0 e0 3e fa 44 21 be 2f b1 95 bc
       0.019797156 0.43933776 -0.15748969 -0.018272964
0003e0 21 cc 2f 3e d5 48 01 be 26 f3 c5 3e d6 b5 32 be
       0.17167713 -0.1262544 0.3866207 -0.17452177
0003f0 28 59 fc 3d ce 2e a0 3e c9 c1 3c be c8 ad ba bd
       0.12321693 0.3128571 -0.18433298 -0.091151774

conv2.conv.0.4.weight f4 [24]
000000 25 f9 18 3f 85 61 47 3f 27 c2 3a 3f 69 b7 11 3f
       0.59755164 0.7788318 0.729525 0.56920487
000010 57 80 46 3f de 47 00 3f 7a f7 54 3f b9 50 58 3f
       0.7753958 0.5010966 0.8319012 0.84498173
000020 e2 49 23 3f 20 00 2f 3f 21 4d 2e 3f 72 43 18 3f
       0.6378461 0.68359566 0.6808644 0.59477913
000030 2c 0e 1b 3f be bf de 3e 3f 2a 63 3f 33 ed 30 3f
       0.605685 0.43505663 0.8873634 0.6911194
000040 a3 cb 5a 3f d4 69 5a 3f ac 8f 5f 3f 6a ef 4f 3f
       0.85466975 0.8531773 0.873286 0.8122469
000050 74 8a 5e 3f 8b a5 c7 3e ba 53 39 3f 42 82 45 3f
       0.8693001 0.38993487 0.7239338 0.7715188

conv2.conv.0.4.bias f4 [24]
000000 cc d6 25 3e 0f 68 da bd 2e 5d db bc 5c 85 d8 3e
       0.1619522 -0.10664379 -0.02677783 0.42289245
000010 08 f7 3e be e4 c4 de 3c 04 21 00 3f 5f 4d 9e 3e
       -0.18648922 0.027193494 0.5005038 0.30918404
000020 7d b4 5d 3e da 9f e3 bd bb bf e8 3e 99 36 01 3f
       0.21650882 -0.11114474 0.4545878 0.50473934
000030 b0 23 91 3e f2 42 f0 3e 80 0d de 3e 95 8f c4 3e
       0.2834754 0.46926075 0.43369675 0.38390794
000040 c9 26 75 3e c9 cc 6d 3d a0 7e 88 3d 27 77 1c 3f
       0.23940577 0.058056626 0.06664777 0.6111931
000050 74 8d 27 3f f4 3b 24 3e 90 38 d6 3e e6 c1 c4 3e
       0.65450215 0.16038495 0.4184003 0.38429183

conv2.conv.0.4.running_mean f4 [24]
000000 b1 c7 5b bf 3c 61 16 3f ba 9a 6c bd 54 1a 19 bf
       -0.8585158 0.5874212 -0.057764746 -0.598058
000010 e7 ba 1a 3e 12 5f b5 bf 55 34 80 bf a9 61 4d bf
       0.1511036 -1.4169638 -1.001597 -0.8022714
000020 3f f2 2a bf 9b e3 89 3f 98 3c 6b 3f f5 29 87 bf
       -0.6677589 1.0772585 0.91889334 -1.0559679
000030 52 b5 39 bf 62 e5 80 3f 53 e4 30 3f 0e e5 89 3f
       -0.725423 1.0070002 0.69098395 1.0773027
000040 f7 bc 02 3f f9 62 46 be 85 11 e5 be 42 cf 28 be
       0.5106959 -0.19373693 -0.4473993 -0.16485313
000050 58 c1 ff 3d fc 79 bd 3e 7c 32 53 be 90 56 22 bf
       0.12488049 0.3700713 -0.20624727 -0.63413334

conv2.conv.0.4.running_var f4 [24]
000000 b0 b6 db 3e 22 29 0c 3f d5 c4 11 3f 89 73 d5 3e
       0.42912817 0.54750264 0.56940967 0.4168971
000010 90 3e be 3e 4d ff bd 3e d5 e0 18 3f 82 4b 02 3f
       0.37157106 0.37108842 0.59718066 0.50896466
000020 b4 c1 ad 3e ed c1 fa 3e 3a 04 90 3e 36 a7 9f 3e
       0.33936846 0.4897608 0.28128225 0.3118226
000030 ab eb 0f 3f 5b a1 ce 3e 13 a5 1a 3f b0 57 ce 3e
       0.56218976 0.4035748 0.60408133 0.40301275
000040 f5 85 6c 3f a9 66 07 3f c5 e4 02 3f cc 74 a0 3e
       0.923919 0.5289102 0.51130325 0.3133911
000050 b9 aa 04 3f a0 b0 87 3e 39 0d 14 3f 80 88 04 3f
       0.51823 0.26501942 0.57832676 0.5177078

conv3.conv.0.0.weight f4 [24, 1, 5, 5]
000000 68 41 6c bd f5 52 51 be 49 db 34 be f5 15 9f bb
       -0.057679564 -0.20441802 -0.17661776 -0.0048549124
000010 1a 6e 1f 3d d8 48 80 be 12 96 8e be fe 9a 98 be
       0.03892336 -0.25055575 -0.2784887 -0.2980575
000020 cc 20 3c be d3 4b 78 3d 17 9d ec 3d 1a 74 16 3d
       -0.18371886 0.060619187 0.115534 0.036731817
000030 c4 73 6e be 1c 39 d1 bc ef c9 2e 3e 99 2b 81 bd
       -0.23286349 -0.025539927 0.17069219 -0.06307144
000040 55 b8 b0 3d 6a c3 ae 3e b9 a7 0b 3e 6f ca be 3d
       0.086289085 0.34133464 0.136382 0.09315955
000050 94 ef 95 3b 91 83 95 3e 1a bf 4e 3e 72 2a 6e 3c
       0.004575679 0.2920194 0.20190087 0.014536487
000060 80 f9 f9 bc 17 a1 c6 3d 7c e0 02 3d 31 34 b7 bc
       -0.030514479 0.09698694 0.031952366 -0.022363754
000070 d4 fe 2c bd 92 6e dc 3c e6 d1 03 bd e6 3b 80 be
       -0.04223521 0.026908193 -0.032182597 -0.250457
000080 a5 6f 50 3c 0a 4a c6 bc 42 64 be bc 6a 2f a3 bd
       0.012721931 -0.024205226 -0.023241166 -0.07968028
000090 df 01 ba be fa c0 48 3e 44 95 22 3f 34 f8 d0 3d
       -0.36329553 0.19604865 0.6350901 0.10203591
0000a0 b2 e1 36 be 34 c0 6a be 30 01 70 bd 67 52 3e 3e
       -0.17859533 -0.22924882 -0.058594882 0.18586121
0000b0 bb ae 80 bd 75 7c 91 bd c9 8d d6 bd 46 f4 ef 3d
       -0.06283327 -0.071038164 -0.10476262 0.11716513
0000c0 33 b9 9a 3c cb 15 80 3d 25 3e e8 bb 32 c6 7c bc
       0.018887138 0.06254157 -0.0070874863 -0.015428113
0000d0 39 3b f6 bc ff 89 64 bc 66 54 60 3d 05 2b 66 3b
       -0.030057536 -0.013948916 0.05476799 0.0035120856
0000e0 f9 36 83 bc 0d e3 68 bd 73 17 74 bd a1 13 14 3e
       -0.016017424 -0.056857157 -0.059592675 0.14460613
0000f0 a0 6b 5f 3e 2b b7 e4 be fd 9d c0 be 37 76 91 3e
       0.218184 -0.44670996 -0.37620535 0.28410503
000100 23 a3 a1 3e ee da 2a be d4 be 05 bf 7b f9 88 bd
       0.31569776 -0.16685078 -0.52244306 -0.066882096
000110 5b a2 98 3e 50 71 8a 3d 2b 4c 40 3e 2a f4 1b 3d
       0.29811367 0.06759894 0.18779056 0.03807465
000120 36 9b 4c bc 0f cc 9b bd 15 14 a1 3d 2d cf 9d ba
       -0.012488177 -0.076072805 0.078651585 -0.0012039893
000130 c3 86 09 3d 83 bb 90 3d 8c b1 6e 3e 74 ec a8 3a
       0.033575784 0.07067015 0.23309916 0.0012887851
000140 f7 ce 7c 3e 90 1c 08 3f bf d9 ab 3e fc aa df 3d
       0.24688326 0.5316858 0.33564565 0.109212846
000150 76 bc 82 be f6 8a 4d 3e 41 7f 14 be 32 4c b8 bc
       -0.2553441 0.2007254 -0.14501669 -0.02249727
000160 a4 7f ad be 05 25 19 be 77 86 ee bd bd ec 41 be
       -0.33886445 -0.14955528 -0.11646741 -0.18937965
000170 fb 05 4c bd 27 bf a7 be 2f 49 ce bd a1 88 24 3d
       -0.04981039 -0.32763025 -0.100725524 0.040169362
000180 c2 50 90 bc 77 61 38 be 34 3a b8 bd 2a 1b c4 3a
       -0.017616633 -0.1800593 -0.08995476 0.0014961709
000190 95 8d 82 bc 8f fa 46 bd aa c7 80 be b8 85 1f bd
       -0.015936652 -0.048578795 -0.25152332 -0.038945884
0001a0 7f 7c d2 3d d4 93 4e 39 30 87 11 bf f3 61 e1 be
       0.10277652 0.00019700761 -0.56846905 -0.44020042
0001b0 4e f1 2c be 39 45 f9 ba 53 a4 8b 3d 1b 64 14 be
       -0.16888925 -0.0019017822 0.06818452 -0.14491312
0001c0 54 5b a9 be d7 32 12 be 97 3d 66 3d 9d 40 4a 3d
       -0.3307749 -0.14277206 0.05621108 0.049378026
0001d0 67 78 79 3e 02 c2 0a 3e 3c 6a df bb 6f bb 5a 3e
       0.24362336 0.1355057 -0.006818084 0.21360563
0001e0 f1 67 54 bc c9 c8 ef 3d c9 6c 8d 3d 6b c8 e0 bd
       -0.012964235 0.117082186 0.06905515 -0.10975727
0001f0 1d ea 49 ba 22 73 08 3d ca c2 9e be fb 24 3c bd
       -0.0007702427 0.033312924 -0.31007987 -0.045933705
000200 f6 3f 34 be 2c 80 e1 3b 05 2b 1c be ac 71 e7 be
       -0.17602524 0.0068817344 -0.15250786 -0.45203912
000210 35 ed 97 bc d3 e3 47 bd 8d 01 4c be 52 27 87 3d
       -0.018545726 -0.048801254 -0.19922467 0.06599297
000220 01 47 38 3e 7d 69 d3 3d 93 fd 91 3e 14 42 5c 3d
       0.17995836 0.10322855 0.28513774 0.053773955
000230 11 d5 39 be 18 05 1c 3e 69 0c 6f 3e 03 9c 17 3d
       -0.18147685 0.15236318 0.23344578 0.03701402
000240 2f 02 e9 3d dd e3 68 bb 43 89 08 3e 06 d0 ab 3e
       0.113773696 -0.0035536208 0.13333611 0.33557147
000250 9a 50 b1 3d 6c 70 d8 3d 77 96 70 bd 9c 75 e5 bc
       0.08657952 0.10568318 -0.058737244 -0.028010182
000260 54 c8 19 bc be e4 8e bc b1 6a a0 3d 41 08 99 bd
       -0.009386141 -0.017443057 0.0783285 -0.074722774
000270 77 1c cf be c3 d7 81 be 78 2d 75 3e 29 29 7e 3d
       -0.40451404 -0.25359926 0.23943126 0.062050972
000280 89 9b 77 3e a7 a7 0a 3f 82 d7 a1 be eb e4 e9 be
       0.24180426 0.5416207 -0.31609732 -0.45682463
000290 2a bf 71 bd 35 14 ea 3c 74 77 82 3e 08 56 84 3e
       -0.0590202 0.028574089 0.2548176 0.25846887
0002a0 73 4b cf bd 65 5e 8b bb 55 99 e9 3c 95 99 63 3d
       -0.10121813 -0.004253196 0.028515497 0.05556639
0002b0 6d a5 47 3d 0e 15 23 be 31 15 a3 bc 78 80 0d 3d
       0.048741747 -0.15926 -0.019907566 0.034546345
0002c0 cd 4c f2 3d dc 2e ab 3d a4 4e 76 bd 9b 0d a5 bd
       0.11831055 0.08358547 -0.06013359 -0.08059236
0002d0 f6 49 29 3d 43 81 aa 3e 67 66 e0 3d c1 d3 b9 be
       0.0413303 0.33301744 0.10957032 -0.36294368
0002e0 a5 5c a6 3b f0 c6 74 3b a2 87 30 3f ba 8a 39 bd
       0.005076962 0.0037350021 0.6895696 -0.045298316
0002f0 8f 4b 5a be c0 5d d6 3c 4f 4e aa 3d cf b8 8f 3e
       -0.21317886 0.02616775 0.083157174 0.28070685
000300 96 a2 1e be 96 5c 88 be 00 c6 4f 3d 2f 7c aa 3d
       -0.15491709 -0.26633137 0.050725937 0.083244674
000310 00 09 84 bd cc 6f 19 3d cd 6f 09 be 3c 52 be bd
       -0.06447029 0.037460133 -0.13421555 -0.09293029
000320 f6 6c 1c 3e 5c ac e5 bd b8 56 ca bd 7f 9b 01 be
       0.1527594 -0.112145156 -0.098798215 -0.12656973
000330 4c cc 7d be 8d 86 7e 3e f3 3f 20 3d ea 27 b1 bd
       -0.24784964 0.24856015 0.039123487 -0.08650191
000340 f2 b9 17 be 72 f4 38 be 9e e5 88 3e 1c 61 2d 3c
       -0.14817026 -0.18061998 0.26737684 0.010582235
000350 ff 9d 88 be ed b1 ec bd 42 f8 87 be 09 89 b5 3e
       -0.2668304 -0.11557374 -0.26556593 0.35456112
000360 f3 48 40 3d 20 80 39 3c b1 a4 b0 bd b5 0f 87 bd
       0.04694457 0.011322051 -0.086251624 -0.06594793
000370 65 81 b0 3e de 71 a4 3e a9 8d af 3d 6a 9a 03 3e
       0.3447372 0.32118124 0.085719414 0.12851873
000380 e1 00 1a bd 77 e3 3e bd f6 dc ee bd 8b 6c b6 3c
       -0.037598494 -0.046603646 -0.11663239 0.022268554
000390 c4 0e 47 3d e1 66 f4 3c d8 98 c8 bc ee 36 3b bd
       0.048598066 0.029834213 -0.024486944 -0.045706682
0003a0 cf 11 05 3d f2 13 a1 3d fb 0c 6d 3d e6 fd 1b 3d
       0.032487687 0.078651324 0.057873707 0.038083933
0003b0 93 8e 09 3d 5b 62 0e 3f 53 9e d6 3e 39 54 40 3e
       0.033583235 0.5561883 0.41917667 0.18782128
0003c0 96 5f 21 bd f8 3f 18 3e ff 13 df 3e 02 91 82 3e
       -0.0393978 0.14868152 0.43569943 0.25501257
0003d0 1b 56 ed 3c 08 06 56 3c 5a 02 ac bd fe 88 14 3e
       0.028971722 0.013062961 -0.08398886 0.14505383
0003e0 8e 9b 9e ba 20 77 76 bd 84 76 5a 3d 0d 89 92 3d
       -0.0012100802 -0.0601722 0.05333568 0.071550466
0003f0 16 fd 2b be c8 42 21 be a4 64 c0 be bc 71 87 bd
       -0.16795763 -0.15748131 -0.37576783 -0.0661349

conv3.conv.0.1.weight f4 [24]
000000 aa 8d d6 3e ef 30 0e 3f e0 2d 0f 3f 27 3d 19 3f
       0.41904956 0.55543417 0.55929375 0.59858936
000010 e3 03 46 3f 8a 01 04 3f 83 2c 5d 3f 1d 00 61 3f
       0.7734968 0.5156485 0.86396044 0.878908
000020 da 47 14 3f 88 2f 63 3f 6d c7 13 3f 64 6c 6c 3f
       0.57922137 0.887444 0.57726175 0.9235289
000030 7c 2e 37 3f 86 58 0f 3f 0a 59 54 3f dd e6 0d 3f
       0.71555305 0.5599445 0.8294836 0.55430394
000040 c0 77 32 3f c5 b8 5a 3f 75 56 21 3f a1 6e a5 3e
       0.69713974 0.85438186 0.6302255 0.32310966
000050 40 a9 5b 3f 76 28 3e 3f b1 5a 6d 3f 06 27 d2 3e
       0.8580513 0.7428049 0.9271651 0.41045398

conv3.conv.0.1.bias f4 [24]
000000 c6 a4 00 3d 6a 42 d7 3d 8f 2b 04 3f c7 3c 9c 3d
       0.03140714 0.10510714 0.51628965 0.0762878
000010 30 5a 87 3e 60 84 ab 3d 0c d2 21 3e 43 31 98 3e
       0.26435995 0.08374858 0.15802783 0.29725084
000020 67 d7 e2 bd 8f 04 d5 bd 6b 1a 36 3d 32 80 2f bc
       -0.11076241 -0.1040126 0.044458788 -0.0107117165
000030 42 be 18 3f 59 fb d7 3d 67 23 cd 3d af a3 e4 3c
       0.5966531 0.10545988 0.10016518 0.027910082
000040 32 0f 4a 3e 29 b6 ff 3e 8d c3 19 3f 7d 89 2e 3f
       0.19732359 0.49943665 0.6006401 0.6817854
000050 8a b7 08 3e 13 c3 f7 3b 23 2e 5f bd 3f 18 e1 3e
       0.13351265 0.0075610965 -0.05448736 0.4396381

conv3.conv.0.1.running_mean f4 [24]
000000 5e 96 ec bd 57 89 81 bc 4b e2 94 bd d2 a5 2e be
       -0.11552118 -0.015812559 -0.072697245 -0.17055443
000010 56 b4 04 bf 0f 6a 0d 3e cc 59 cc bd 88 62 bb 3e
       -0.5183767 0.1380999 -0.09978065 0.3659861
000020 a8 40 bd 3d bb 47 50 3f 0d 6d 53 3d 14 c6 f3 bc
       0.09240848 0.8135945 0.05161767 -0.029757537
000030 b7 7c 2e bf 5b 32 a9 3d 4d b4 6e be b9 69 72 3e
       -0.6815905 0.08261558 -0.23310967 0.23673142
000040 cc c4 89 3d fe f0 b1 bf d6 4d 95 3f b5 fa 07 bf
       0.06726989 -1.390167 1.1664379 -0.53116924
000050 c3 99 37 3f 67 7a 3b 3e 63 aa 7b be d0 b0 4e 3f
       0.71718997 0.18308412 -0.24576716 0.80738544

conv3.conv.0.1.running_var f4 [24]
000000 c1 bf e9 3d 52 c9 15 3e 45 05 18 3e 8f 13 6c 3e
       0.11413527 0.14627579 0.1484576 0.23054336
000010 31 5d ec 3e 91 04 9c 3d 3a 33 10 3f 70 20 51 3f
       0.4616485 0.076180585 0.56328166 0.8169012
000020 92 44 87 3e 4a f7 77 3f f3 fd 9d 3e 3b 7a 7c 3e
       0.26419502 0.9686171 0.3085781 0.24656002
000030 1e ae 10 3f d5 78 0f 3e 3c a0 85 3f 63 89 dd 3e
       0.5651568 0.14010938 1.0439525 0.4326888
000040 4a 69 c0 3e 00 fd ac 3f e6 79 89 3f 0e 66 e7 3e
       0.3758033 1.351471 1.0740325 0.4519505
000050 bb cf 53 3f 46 db 20 3e 82 1d e2 3e a5 dd 84 3e
       0.82738847 0.15708646 0.44163138 0.2595035

conv3.conv.0.3.weight f4 [24, 24, 1, 1]
000000 8e 21 1e 3e 11 63 27 be 19 fe 89 be 90 03 9c 3e
       0.15442488 -0.16346385 -0.26951674 0.30471468
000010 c4 67 84 bc 72 b1 31 3e 18 bf 2e be f2 94 c9 be
       -0.01616276 0.17352846 -0.17065084 -0.3937145
000020 05 6a 2c 3d fe d8 e2 bd 5d 7a 83 3e e6 f3 70 bd
       0.042093296 -0.11076544 0.25679293 -0.05882635
000030 80 7f 85 3e ab 01 71 3e 9b d1 c5 be 53 d0 b8 bc
       0.26073837 0.23535793 -0.3863648 -0.022560274
000040 b2 a3 53 be 0a cf 8e 3c c6 17 82 3e eb 21 f6 bd
       -0.20667914 0.017432708 0.25408763 -0.12018188
000050 3b 51 90 bd 71 e3 38 3e 2c d7 d3 3b 7d ed ce 3e
       -0.070467435 0.18055512 0.0064648595 0.40415564
000060 c8 47 b2 3c 5f 61 a5 be ec a8 57 be 1f 21 ca bd
       0.021762744 -0.3230085 -0.21060532 -0.098695986
000070 b9 91 da be e8 7e 4e 3d 9d 6b 0e 3f 13 11 b3 be
       -0.42689303 0.050413996 0.55632955 -0.34973964
000080 3a f0 b1 3d db 7c 2a be 94 0a c4 bd 88 54 6c bd
       0.08688398 -0.16649191 -0.0957233 -0.057697803
000090 88 05 54 3c b3 e6 80 3b 7c 9d 48 be 5e 64 b8 bd
       0.012940772 0.0039337515 -0.19591326 -0.090035185
0000a0 5a 21 af 3e a0 e3 23 be a0 1f 11 bd bf 6c 05 bd
       0.34205133 -0.16004801 -0.03543055 -0.03257441
0000b0 84 ca 5e 3e 9f 37 56 bd f9 be 86 bd 1d a8 6a 3d
       0.21756941 -0.05229914 -0.06579394 0.05728923
0000c0 fe b3 11 bb 2c 57 9d 38 25 57 9c be 27 28 d1 3d
       -0.0022232528 7.5025804e-05 -0.30535236 0.102127366
0000d0 9c dc 80 be e2 99 b3 bd e8 09 93 3e 22 6c 3e bc
       -0.25168312 -0.08769585 0.28718495 -0.011622461
0000e0 b4 52 59 3d 9b 94 85 be bc 46 a9 bd 21 51 1b be
       0.053057387 -0.2608994 -0.08265445 -0.15167667
0000f0 aa 21 89 bd 56 18 67 3d 0e 3e 02 3e 3b 23 f5 3c
       -0.06695874 0.056419693 0.12718984 0.029924026
000100 8d 30 99 3e ae 16 ce be 37 d1 4c bd 7d 81 a0 3c
       0.29919854 -0.40251678 -0.05000421 0.019592995
000110 31 74 3c be a5 37 0a bd cb 3b 78 3e 7b 35 1b bd
       -0.18403699 -0.033744473 0.24241559 -0.0378928
000120 8c 11 43 3c 03 2c c1 bd fb 5b d0 3c 80 bf e5 be
       0.011906039 -0.09432223 0.025434485 -0.44872665
000130 8e 2a ff 3d 71 c5 38 3d 60 08 2f bd 55 91 85 bb
       0.124592885 0.04511017 -0.042732596 -0.004076163
000140 b8 01 2e 3e 46 e7 05 3a e1 52 a3 bd 33 0f 4a 3d
       0.16992843 0.000510801 -0.07974792 0.0493309
000150 b1 71 77 be 70 46 6f bd 8e ee b8 3e 9e 0d 65 be
       -0.24164464 -0.058416784 0.36119503 -0.22368476
000160 15 24 60 be fe 8d e7 bd 08 b9 0a be fc 80 f6 bc
       -0.21888764 -0.1130638 -0.13547146 -0.030090801
000170 72 01 75 bd 77 34 b9 3d 18 04 d6 3e a6 a7 24 3d
       -0.05981583 0.0904321 0.41799998 0.040198945
000180 ba c7 ed 3d 75 ad d8 bb 59 6c 05 be 0a 84 85 3d
       0.116103604 -0.0066124746 -0.13029613 0.06519325
000190 5f 17 87 3e 9f 40 35 3e 49 49 18 3c 66 a8 3c be
       0.26385018 0.17700432 0.009294816 -0.18423614
0001a0 79 88 01 3c 89 52 65 3e 44 43 23 3e 0f 34 da be
       0.007906073 0.22394766 0.15943629 -0.42617843
0001b0 cc a6 a4 3d b4 97 9f be dd a9 9d 3e 2d 9e cc 3b
       0.080396265 -0.31170428 0.30793658 0.006244442
0001c0 a8 53 9f 3e 36 65 62 3d c6 92 35 3e 49 56 46 3e
       0.31118512 0.055272304 0.17731771 0.19368853
0001d0 5b 35 14 be 1d 77 c2 3e be e1 00 3d 38 50 70 bd
       -0.14473478 0.379815 0.031465285 -0.058670253
0001e0 40 fa fa bd 7e eb 98 3b af f4 e0 3e ac b4 cc 3d
       -0.12254763 0.0046667447 0.4393668 0.09995398
0001f0 db 2e a1 bd dc 40 05 be 61 6f 81 3d 90 25 15 be
       -0.07870265 -0.13013023 0.06320072 -0.1456511
000200 2c 79 d8 bd f4 d0 ce bd 23 0b bf bd c9 b6 b6 3c
       -0.10569987 -0.100984484 -0.09328296 0.022303956
000210 b4 1b fa be 39 42 84 3c 57 1d 30 be 96 f8 ae 3e
       -0.4884926 0.016144859 -0.17198692 0.3417403
000220 ef 03 38 3d 59 25 34 3e 63 1c bf be b2 fa 1b 3e
       0.044925626 0.17592372 -0.37326345 0.15232351
000230 5d 9b cb bd 77 04 37 3d dc 56 1e be 26 e8 af bd
       -0.099417426 0.044681992 -0.15462822 -0.08589201
000240 cb 49 1f 3e 47 74 d3 3d bc 50 17 3e 4f 17 78 bd
       0.15555494 0.103249125 0.14776891 -0.060569104
000250 49 0a 88 3d 4c 4c 38 be c0 1d 92 3e a8 68 76 3d
       0.06642587 -0.17997855 0.28538322 0.0601584
000260 c0 37 ec 3d fe 3f 8f be 19 b2 57 3e d0 f9 8a be
       0.11534071 -0.2797851 0.21064033 -0.27143717
000270 59 1b c6 3c 57 08 17 be 09 36 40 be e9 a2 34 3e
       0.024182962 -0.14749275 -0.18770613 0.1764027
000280 d8 81 38 be 18 3a 14 3f f9 f5 87 3d 82 6e 01 be
       -0.18018281 0.57901144 0.066387124 -0.12639812
000290 8f 6d 31 be 32 39 8f bd da c4 65 3e c5 ea 91 3d
       -0.1732695 -0.06993331 0.22438374 0.07124857
0002a0 76 9e 84 be c5 a0 6f bd 41 2a 2a 3e 88 0d 43 3c
       -0.25902146 -0.05850293 0.16617681 0.011905082
0002b0 6a 37 11 be d5 e2 07 bd fe 09 da be 24 6a f7 bc
       -0.14181295 -0.03317531 -0.42585748 -0.030201979
0002c0 95 88 d9 3d 5e c3 10 be 61 ac 85 bd 91 27 b1 3e
       0.10621754 -0.14137027 -0.06527019 0.346005
0002d0 1d 53 ba bd af e2 6a 3e d0 fc 31 bd f7 c5 55 be
       -0.09097884 0.22938035 -0.04345399 -0.20876299
0002e0 b0 45 42 be 67 15 9b 3d 79 a1 80 bd ee 25 66 be
       -0.18971896 0.075724415 -0.062807985 -0.22475407
0002f0 7c 7b 0b 3f 75 0b 7f be a9 9e e4 3c 3e a6 97 3d
       0.544853 -0.24906714 0.027907686 0.07404755
000300 23 03 7a be ec ea 82 be 67 23 28 3e 6a ee ad bd
       -0.24415259 -0.25569856 0.16419755 -0.084927395
000310 67 f0 4f 3e 0d 1e da be fc 85 09 bd d5 c7 59 3d
       0.2030655 -0.42601052 -0.033575043 0.05316909
000320 37 05 fa bd 89 8e d3 3d df 4e 81 3e b9 7f 07 bd
       -0.12208026 0.10329921 0.25255486 -0.03308079
000330 3c a8 18 be 6b 00 9e bb bd 82 c9 bd 75 be 99 3e
       -0.14907926 -0.004821827 -0.098393895 0.3002812
000340 fa cb a3 3d 17 56 34 be 6a 83 06 be 41 73 d6 be
       0.0799789 -0.17610966 -0.13136068 -0.41884807
000350 5a ba 96 bd be 00 20 be ea 10 57 bc 32 7f a2 bd
       -0.073597625 -0.15625283 -0.013126591 -0.07934417
000360 92 5b ec 3c 50 6b 83 be df a5 8f be 7c d0 56 3d
       0.028852258 -0.2566781 -0.28056237 0.05244492
000370 7a 87 da bd f1 a9 8d be 70 33 6c 3b 72 e2 a0 3d
       -0.10670371 -0.27668718 0.0036041401 0.07855691
000380 66 3f 07 be 77 1e c9 be a3 bd f8 bd 8a f0 e2 bc
       -0.13207778 -0.39281055 -0.12145545 -0.027702589
000390 9e 6e 17 3f 0a b0 bd 3c eb 72 f3 bd a4 56 63 be
       0.59153163 0.023155231 -0.11887153 -0.2220102
0003a0 e1 a6 f5 bd 67 43 b2 3d ae 52 89 3e 3d ea 97 bd
       -0.1199472 0.08704262 0.26820892 -0.07417724
0003b0 44 c9 31 be a5 62 91 be 57 57 c4 3d 4d a4 1f bd
       -0.17361933 -0.28395572 0.09586971 -0.03897505
0003c0 aa 1a 77 be 2b c7 de 3e d1 ed 06 bd 0d 01 c4 be
       -0.24131265 0.43511328 -0.032941643 -0.38282052
0003d0 20 51 b5 3d 5f ba 28 bd ae 35 9b 3d fd ac 94 be
       0.08853364 -0.041193362 0.07578598 -0.2903823
0003e0 2c 7f c9 bd 08 93 11 be 34 0d 0f be 56 a2 cf be
       -0.09838709 -0.14216244 -0.1396988 -0.4055354
0003f0 5d a3 f0 bd 26 fb 21 be 2e dd dc 3c cb cf e7 bd
       -0.11749909 -0.15818462 0.026960935 -0.1131893

conv3.conv.0.4.weight f4 [24]
000000 77 91 5b 3f 65 68 81 3f 39 54 16 3f 3c 61 04 3f
       0.85768837 1.0109984 0.58722264 0.5171087
000010 e0 93 0d 3f 55 58 84 3f 76 54 44 3f 9b 6e 34 3f
       0.55303764 1.0339457 0.7669138 0.7048127
000020 2d c6 0b 3f db a0 a0 3f 92 0d 09 3f 96 74 42 3f
       0.5459927 1.2549089 0.5353633 0.75959146
000030 14 e8 51 3f ea af 23 3f f0 4c 33 3f e6 94 cb 3e
       0.8199475 0.639403 0.7003927 0.39762038
000040 ec 77 64 3f d5 a3 89 3f e0 c4 39 3f 68 d1 ea 3e
       0.89245486 1.0753123 0.7256603 0.4586289
000050 0a b8 33 3f e8 c3 71 3f ea 9d 91 3f 82 39 74 3f
       0.70202696 0.94439554 1.1376317 0.9540025

conv3.conv.0.4.bias f4 [24]
000000 37 dc 0b be e6 46 13 be 46 5e 87 3e 1e 7a 58 be
       -0.13658224 -0.14382514 0.26439112 -0.21140334
000010 e2 f1 b1 3e ae 98 4d 3e b3 bd 8d be e2 2d 64 be
       0.34754854 0.20077774 -0.27683792 -0.22283128
000020 46 58 f1 3e 9e c4 69 be 21 20 19 3f d7 3b ab be
       0.4713766 -0.2282891 0.5981465 -0.33444092
000030 73 87 99 be 72 ad 49 3f 77 6e 71 3e 5e 75 29 3e
       -0.29986152 0.7878028 0.23577295 0.16548678
000040 0b 6f 80 be bf 8a 88 3e de 07 51 3e 43 72 7a be
       -0.2508472 0.26668355 0.20413157 -0.2445765
000050 b2 78 ac be 1b 28 07 3f 15 f6 fc 3c 12 5f 7f 3e
       -0.33685833 0.5279557 0.03087906 0.2493861

conv3.conv.0.4.running_mean f4 [24]
000000 8b 5c 46 3d 79 77 dd be a4 39 fe be 6e a0 92 be
       0.0484281 -0.43255213 -0.4965335 -0.28638023
000010 d6 8b f9 3e 02 37 a0 be d7 5c cc 3e 79 70 73 be
       0.487395 -0.31291968 0.3991458 -0.23773374
000020 ee ed 1a bf 24 a1 97 bd 65 21 df be ed 5d 59 bf
       -0.605193 -0.07403782 -0.43580166 -0.84908944
000030 39 50 73 3e 68 ea 77 3d 9d 20 1a be 8a d0 44 3f
       0.23761071 0.06052628 -0.15051503 0.76880705
000040 cf 63 5b bf 3c 6d 18 bf 28 7c 9c 3e 79 a7 dc bd
       -0.8569917 -0.5954168 0.30563474 -0.107741304
000050 0b d8 10 bf be 3e 25 3f dd b1 90 bf 90 ca c8 3d
       -0.56579655 0.6454886 -1.130428 0.09804261

conv3.conv.0.4.running_var f4 [24]
000000 0d ec a7 3e 09 43 a3 3e 15 1a 88 3e 60 f2 df 3d
       0.3279728 0.3188708 0.265824 0.10934901
000010 be 91 95 3e 74 f9 93 3e f6 7c aa 3e 64 47 a8 3e
       0.29212755 0.28901255 0.33298463 0.32866967
000020 61 05 e7 3d 32 2a 00 3f 98 7b 85 3e 38 ac 8a 3e
       0.11280323 0.50064385 0.26070857 0.27084517
000030 41 25 ad 3e 38 9b 80 3e ce 06 80 3e 2d cb 89 3e
       0.33817485 0.25118423 0.25005192 0.26912823
000040 f8 b1 98 3e 2f 26 8f 3e 0c cc 3f 3e 1c 90 25 3e
       0.2982328 0.2795882 0.18730181 0.16168255
000050 cd d7 8c 3e 40 c8 e6 3e a2 5f 98 3e 5b 5d 99 3e
       0.27508393 0.45074654 0.29760462 0.29954037
